Before assiginh EncoderDecoder(
  (backbone): InternImage(
    (patch_embed): StemLayer(
      (conv1): Conv2d(3, 56, kernel_size=(3, 3), stride=(2, 2), padding=(1, 1))
      (norm1): Sequential(
        (0): to_channels_last()
        (1): LayerNorm((56,), eps=1e-06, elementwise_affine=True)
        (2): to_channels_first()
      )
      (act): GELU(approximate=none)
      (conv2): Conv2d(56, 112, kernel_size=(3, 3), stride=(2, 2), padding=(1, 1))
      (norm2): Sequential(
        (0): to_channels_last()
        (1): LayerNorm((112,), eps=1e-06, elementwise_affine=True)
      )
    )
    (pos_drop): Dropout(p=0.0, inplace=False)
    (levels): ModuleList(
      (0): InternImageBlock(
        (blocks): ModuleList(
          (0): InternImageLayer(
            (norm1): Sequential(
              (0): LayerNorm((112,), eps=1e-06, elementwise_affine=True)
            )
            (dcn): DCNv3(
              (dw_conv): Sequential(
                (0): Conv2d(112, 112, kernel_size=(3, 3), stride=(1, 1), padding=(1, 1), groups=112)
                (1): Sequential(
                  (0): to_channels_last()
                  (1): LayerNorm((112,), eps=1e-06, elementwise_affine=True)
                )
                (2): GELU(approximate=none)
              )
              (offset): Linear(in_features=112, out_features=126, bias=True)
              (mask): Linear(in_features=112, out_features=63, bias=True)
              (input_proj): Linear(in_features=112, out_features=112, bias=True)
              (output_proj): Linear(in_features=112, out_features=112, bias=True)
            )
            (drop_path): Identity()
            (norm2): Sequential(
              (0): LayerNorm((112,), eps=1e-06, elementwise_affine=True)
            )
            (mlp): MLPLayer(
              (fc1): Linear(in_features=112, out_features=448, bias=True)
              (act): GELU(approximate=none)
              (fc2): Linear(in_features=448, out_features=112, bias=True)
              (drop): Dropout(p=0.0, inplace=False)
            )
          )
          (1): InternImageLayer(
            (norm1): Sequential(
              (0): LayerNorm((112,), eps=1e-06, elementwise_affine=True)
            )
            (dcn): DCNv3(
              (dw_conv): Sequential(
                (0): Conv2d(112, 112, kernel_size=(3, 3), stride=(1, 1), padding=(1, 1), groups=112)
                (1): Sequential(
                  (0): to_channels_last()
                  (1): LayerNorm((112,), eps=1e-06, elementwise_affine=True)
                )
                (2): GELU(approximate=none)
              )
              (offset): Linear(in_features=112, out_features=126, bias=True)
              (mask): Linear(in_features=112, out_features=63, bias=True)
              (input_proj): Linear(in_features=112, out_features=112, bias=True)
              (output_proj): Linear(in_features=112, out_features=112, bias=True)
            )
            (drop_path): DropPath(drop_prob=0.013)
            (norm2): Sequential(
              (0): LayerNorm((112,), eps=1e-06, elementwise_affine=True)
            )
            (mlp): MLPLayer(
              (fc1): Linear(in_features=112, out_features=448, bias=True)
              (act): GELU(approximate=none)
              (fc2): Linear(in_features=448, out_features=112, bias=True)
              (drop): Dropout(p=0.0, inplace=False)
            )
          )
          (2): InternImageLayer(
            (norm1): Sequential(
              (0): LayerNorm((112,), eps=1e-06, elementwise_affine=True)
            )
            (dcn): DCNv3(
              (dw_conv): Sequential(
                (0): Conv2d(112, 112, kernel_size=(3, 3), stride=(1, 1), padding=(1, 1), groups=112)
                (1): Sequential(
                  (0): to_channels_last()
                  (1): LayerNorm((112,), eps=1e-06, elementwise_affine=True)
                )
                (2): GELU(approximate=none)
              )
              (offset): Linear(in_features=112, out_features=126, bias=True)
              (mask): Linear(in_features=112, out_features=63, bias=True)
              (input_proj): Linear(in_features=112, out_features=112, bias=True)
              (output_proj): Linear(in_features=112, out_features=112, bias=True)
            )
            (drop_path): DropPath(drop_prob=0.025)
            (norm2): Sequential(
              (0): LayerNorm((112,), eps=1e-06, elementwise_affine=True)
            )
            (mlp): MLPLayer(
              (fc1): Linear(in_features=112, out_features=448, bias=True)
              (act): GELU(approximate=none)
              (fc2): Linear(in_features=448, out_features=112, bias=True)
              (drop): Dropout(p=0.0, inplace=False)
            )
          )
          (3): InternImageLayer(
            (norm1): Sequential(
              (0): LayerNorm((112,), eps=1e-06, elementwise_affine=True)
            )
            (dcn): DCNv3(
              (dw_conv): Sequential(
                (0): Conv2d(112, 112, kernel_size=(3, 3), stride=(1, 1), padding=(1, 1), groups=112)
                (1): Sequential(
                  (0): to_channels_last()
                  (1): LayerNorm((112,), eps=1e-06, elementwise_affine=True)
                )
                (2): GELU(approximate=none)
              )
              (offset): Linear(in_features=112, out_features=126, bias=True)
              (mask): Linear(in_features=112, out_features=63, bias=True)
              (input_proj): Linear(in_features=112, out_features=112, bias=True)
              (output_proj): Linear(in_features=112, out_features=112, bias=True)
            )
            (drop_path): DropPath(drop_prob=0.038)
            (norm2): Sequential(
              (0): LayerNorm((112,), eps=1e-06, elementwise_affine=True)
            )
            (mlp): MLPLayer(
              (fc1): Linear(in_features=112, out_features=448, bias=True)
              (act): GELU(approximate=none)
              (fc2): Linear(in_features=448, out_features=112, bias=True)
              (drop): Dropout(p=0.0, inplace=False)
            )
          )
        )
        (downsample): DownsampleLayer(
          (conv): Conv2d(112, 224, kernel_size=(3, 3), stride=(2, 2), padding=(1, 1), bias=False)
          (norm): Sequential(
            (0): to_channels_last()
            (1): LayerNorm((224,), eps=1e-06, elementwise_affine=True)
          )
        )
      )
      (1): InternImageBlock(
        (blocks): ModuleList(
          (0): InternImageLayer(
            (norm1): Sequential(
              (0): LayerNorm((224,), eps=1e-06, elementwise_affine=True)
            )
            (dcn): DCNv3(
              (dw_conv): Sequential(
                (0): Conv2d(224, 224, kernel_size=(3, 3), stride=(1, 1), padding=(1, 1), groups=224)
                (1): Sequential(
                  (0): to_channels_last()
                  (1): LayerNorm((224,), eps=1e-06, elementwise_affine=True)
                )
                (2): GELU(approximate=none)
              )
              (offset): Linear(in_features=224, out_features=252, bias=True)
              (mask): Linear(in_features=224, out_features=126, bias=True)
              (input_proj): Linear(in_features=224, out_features=224, bias=True)
              (output_proj): Linear(in_features=224, out_features=224, bias=True)
            )
            (drop_path): DropPath(drop_prob=0.050)
            (norm2): Sequential(
              (0): LayerNorm((224,), eps=1e-06, elementwise_affine=True)
            )
            (mlp): MLPLayer(
              (fc1): Linear(in_features=224, out_features=896, bias=True)
              (act): GELU(approximate=none)
              (fc2): Linear(in_features=896, out_features=224, bias=True)
              (drop): Dropout(p=0.0, inplace=False)
            )
          )
          (1): InternImageLayer(
            (norm1): Sequential(
              (0): LayerNorm((224,), eps=1e-06, elementwise_affine=True)
            )
            (dcn): DCNv3(
              (dw_conv): Sequential(
                (0): Conv2d(224, 224, kernel_size=(3, 3), stride=(1, 1), padding=(1, 1), groups=224)
                (1): Sequential(
                  (0): to_channels_last()
                  (1): LayerNorm((224,), eps=1e-06, elementwise_affine=True)
                )
                (2): GELU(approximate=none)
              )
              (offset): Linear(in_features=224, out_features=252, bias=True)
              (mask): Linear(in_features=224, out_features=126, bias=True)
              (input_proj): Linear(in_features=224, out_features=224, bias=True)
              (output_proj): Linear(in_features=224, out_features=224, bias=True)
            )
            (drop_path): DropPath(drop_prob=0.062)
            (norm2): Sequential(
              (0): LayerNorm((224,), eps=1e-06, elementwise_affine=True)
            )
            (mlp): MLPLayer(
              (fc1): Linear(in_features=224, out_features=896, bias=True)
              (act): GELU(approximate=none)
              (fc2): Linear(in_features=896, out_features=224, bias=True)
              (drop): Dropout(p=0.0, inplace=False)
            )
          )
          (2): InternImageLayer(
            (norm1): Sequential(
              (0): LayerNorm((224,), eps=1e-06, elementwise_affine=True)
            )
            (dcn): DCNv3(
              (dw_conv): Sequential(
                (0): Conv2d(224, 224, kernel_size=(3, 3), stride=(1, 1), padding=(1, 1), groups=224)
                (1): Sequential(
                  (0): to_channels_last()
                  (1): LayerNorm((224,), eps=1e-06, elementwise_affine=True)
                )
                (2): GELU(approximate=none)
              )
              (offset): Linear(in_features=224, out_features=252, bias=True)
              (mask): Linear(in_features=224, out_features=126, bias=True)
              (input_proj): Linear(in_features=224, out_features=224, bias=True)
              (output_proj): Linear(in_features=224, out_features=224, bias=True)
            )
            (drop_path): DropPath(drop_prob=0.075)
            (norm2): Sequential(
              (0): LayerNorm((224,), eps=1e-06, elementwise_affine=True)
            )
            (mlp): MLPLayer(
              (fc1): Linear(in_features=224, out_features=896, bias=True)
              (act): GELU(approximate=none)
              (fc2): Linear(in_features=896, out_features=224, bias=True)
              (drop): Dropout(p=0.0, inplace=False)
            )
          )
          (3): InternImageLayer(
            (norm1): Sequential(
              (0): LayerNorm((224,), eps=1e-06, elementwise_affine=True)
            )
            (dcn): DCNv3(
              (dw_conv): Sequential(
                (0): Conv2d(224, 224, kernel_size=(3, 3), stride=(1, 1), padding=(1, 1), groups=224)
                (1): Sequential(
                  (0): to_channels_last()
                  (1): LayerNorm((224,), eps=1e-06, elementwise_affine=True)
                )
                (2): GELU(approximate=none)
              )
              (offset): Linear(in_features=224, out_features=252, bias=True)
              (mask): Linear(in_features=224, out_features=126, bias=True)
              (input_proj): Linear(in_features=224, out_features=224, bias=True)
              (output_proj): Linear(in_features=224, out_features=224, bias=True)
            )
            (drop_path): DropPath(drop_prob=0.087)
            (norm2): Sequential(
              (0): LayerNorm((224,), eps=1e-06, elementwise_affine=True)
            )
            (mlp): MLPLayer(
              (fc1): Linear(in_features=224, out_features=896, bias=True)
              (act): GELU(approximate=none)
              (fc2): Linear(in_features=896, out_features=224, bias=True)
              (drop): Dropout(p=0.0, inplace=False)
            )
          )
        )
        (downsample): DownsampleLayer(
          (conv): Conv2d(224, 448, kernel_size=(3, 3), stride=(2, 2), padding=(1, 1), bias=False)
          (norm): Sequential(
            (0): to_channels_last()
            (1): LayerNorm((448,), eps=1e-06, elementwise_affine=True)
          )
        )
      )
      (2): InternImageBlock(
        (blocks): ModuleList(
          (0): InternImageLayer(
            (norm1): Sequential(
              (0): LayerNorm((448,), eps=1e-06, elementwise_affine=True)
            )
            (dcn): DCNv3(
              (dw_conv): Sequential(
                (0): Conv2d(448, 448, kernel_size=(3, 3), stride=(1, 1), padding=(1, 1), groups=448)
                (1): Sequential(
                  (0): to_channels_last()
                  (1): LayerNorm((448,), eps=1e-06, elementwise_affine=True)
                )
                (2): GELU(approximate=none)
              )
              (offset): Linear(in_features=448, out_features=504, bias=True)
              (mask): Linear(in_features=448, out_features=252, bias=True)
              (input_proj): Linear(in_features=448, out_features=448, bias=True)
              (output_proj): Linear(in_features=448, out_features=448, bias=True)
            )
            (drop_path): DropPath(drop_prob=0.100)
            (norm2): Sequential(
              (0): LayerNorm((448,), eps=1e-06, elementwise_affine=True)
            )
            (mlp): MLPLayer(
              (fc1): Linear(in_features=448, out_features=1792, bias=True)
              (act): GELU(approximate=none)
              (fc2): Linear(in_features=1792, out_features=448, bias=True)
              (drop): Dropout(p=0.0, inplace=False)
            )
          )
          (1): InternImageLayer(
            (norm1): Sequential(
              (0): LayerNorm((448,), eps=1e-06, elementwise_affine=True)
            )
            (dcn): DCNv3(
              (dw_conv): Sequential(
                (0): Conv2d(448, 448, kernel_size=(3, 3), stride=(1, 1), padding=(1, 1), groups=448)
                (1): Sequential(
                  (0): to_channels_last()
                  (1): LayerNorm((448,), eps=1e-06, elementwise_affine=True)
                )
                (2): GELU(approximate=none)
              )
              (offset): Linear(in_features=448, out_features=504, bias=True)
              (mask): Linear(in_features=448, out_features=252, bias=True)
              (input_proj): Linear(in_features=448, out_features=448, bias=True)
              (output_proj): Linear(in_features=448, out_features=448, bias=True)
            )
            (drop_path): DropPath(drop_prob=0.113)
            (norm2): Sequential(
              (0): LayerNorm((448,), eps=1e-06, elementwise_affine=True)
            )
            (mlp): MLPLayer(
              (fc1): Linear(in_features=448, out_features=1792, bias=True)
              (act): GELU(approximate=none)
              (fc2): Linear(in_features=1792, out_features=448, bias=True)
              (drop): Dropout(p=0.0, inplace=False)
            )
          )
          (2): InternImageLayer(
            (norm1): Sequential(
              (0): LayerNorm((448,), eps=1e-06, elementwise_affine=True)
            )
            (dcn): DCNv3(
              (dw_conv): Sequential(
                (0): Conv2d(448, 448, kernel_size=(3, 3), stride=(1, 1), padding=(1, 1), groups=448)
                (1): Sequential(
                  (0): to_channels_last()
                  (1): LayerNorm((448,), eps=1e-06, elementwise_affine=True)
                )
                (2): GELU(approximate=none)
              )
              (offset): Linear(in_features=448, out_features=504, bias=True)
              (mask): Linear(in_features=448, out_features=252, bias=True)
              (input_proj): Linear(in_features=448, out_features=448, bias=True)
              (output_proj): Linear(in_features=448, out_features=448, bias=True)
            )
            (drop_path): DropPath(drop_prob=0.125)
            (norm2): Sequential(
              (0): LayerNorm((448,), eps=1e-06, elementwise_affine=True)
            )
            (mlp): MLPLayer(
              (fc1): Linear(in_features=448, out_features=1792, bias=True)
              (act): GELU(approximate=none)
              (fc2): Linear(in_features=1792, out_features=448, bias=True)
              (drop): Dropout(p=0.0, inplace=False)
            )
          )
          (3): InternImageLayer(
            (norm1): Sequential(
              (0): LayerNorm((448,), eps=1e-06, elementwise_affine=True)
            )
            (dcn): DCNv3(
              (dw_conv): Sequential(
                (0): Conv2d(448, 448, kernel_size=(3, 3), stride=(1, 1), padding=(1, 1), groups=448)
                (1): Sequential(
                  (0): to_channels_last()
                  (1): LayerNorm((448,), eps=1e-06, elementwise_affine=True)
                )
                (2): GELU(approximate=none)
              )
              (offset): Linear(in_features=448, out_features=504, bias=True)
              (mask): Linear(in_features=448, out_features=252, bias=True)
              (input_proj): Linear(in_features=448, out_features=448, bias=True)
              (output_proj): Linear(in_features=448, out_features=448, bias=True)
            )
            (drop_path): DropPath(drop_prob=0.138)
            (norm2): Sequential(
              (0): LayerNorm((448,), eps=1e-06, elementwise_affine=True)
            )
            (mlp): MLPLayer(
              (fc1): Linear(in_features=448, out_features=1792, bias=True)
              (act): GELU(approximate=none)
              (fc2): Linear(in_features=1792, out_features=448, bias=True)
              (drop): Dropout(p=0.0, inplace=False)
            )
          )
          (4): InternImageLayer(
            (norm1): Sequential(
              (0): LayerNorm((448,), eps=1e-06, elementwise_affine=True)
            )
            (dcn): DCNv3(
              (dw_conv): Sequential(
                (0): Conv2d(448, 448, kernel_size=(3, 3), stride=(1, 1), padding=(1, 1), groups=448)
                (1): Sequential(
                  (0): to_channels_last()
                  (1): LayerNorm((448,), eps=1e-06, elementwise_affine=True)
                )
                (2): GELU(approximate=none)
              )
              (offset): Linear(in_features=448, out_features=504, bias=True)
              (mask): Linear(in_features=448, out_features=252, bias=True)
              (input_proj): Linear(in_features=448, out_features=448, bias=True)
              (output_proj): Linear(in_features=448, out_features=448, bias=True)
            )
            (drop_path): DropPath(drop_prob=0.150)
            (norm2): Sequential(
              (0): LayerNorm((448,), eps=1e-06, elementwise_affine=True)
            )
            (mlp): MLPLayer(
              (fc1): Linear(in_features=448, out_features=1792, bias=True)
              (act): GELU(approximate=none)
              (fc2): Linear(in_features=1792, out_features=448, bias=True)
              (drop): Dropout(p=0.0, inplace=False)
            )
          )
          (5): InternImageLayer(
            (norm1): Sequential(
              (0): LayerNorm((448,), eps=1e-06, elementwise_affine=True)
            )
            (dcn): DCNv3(
              (dw_conv): Sequential(
                (0): Conv2d(448, 448, kernel_size=(3, 3), stride=(1, 1), padding=(1, 1), groups=448)
                (1): Sequential(
                  (0): to_channels_last()
                  (1): LayerNorm((448,), eps=1e-06, elementwise_affine=True)
                )
                (2): GELU(approximate=none)
              )
              (offset): Linear(in_features=448, out_features=504, bias=True)
              (mask): Linear(in_features=448, out_features=252, bias=True)
              (input_proj): Linear(in_features=448, out_features=448, bias=True)
              (output_proj): Linear(in_features=448, out_features=448, bias=True)
            )
            (drop_path): DropPath(drop_prob=0.162)
            (norm2): Sequential(
              (0): LayerNorm((448,), eps=1e-06, elementwise_affine=True)
            )
            (mlp): MLPLayer(
              (fc1): Linear(in_features=448, out_features=1792, bias=True)
              (act): GELU(approximate=none)
              (fc2): Linear(in_features=1792, out_features=448, bias=True)
              (drop): Dropout(p=0.0, inplace=False)
            )
          )
          (6): InternImageLayer(
            (norm1): Sequential(
              (0): LayerNorm((448,), eps=1e-06, elementwise_affine=True)
            )
            (dcn): DCNv3(
              (dw_conv): Sequential(
                (0): Conv2d(448, 448, kernel_size=(3, 3), stride=(1, 1), padding=(1, 1), groups=448)
                (1): Sequential(
                  (0): to_channels_last()
                  (1): LayerNorm((448,), eps=1e-06, elementwise_affine=True)
                )
                (2): GELU(approximate=none)
              )
              (offset): Linear(in_features=448, out_features=504, bias=True)
              (mask): Linear(in_features=448, out_features=252, bias=True)
              (input_proj): Linear(in_features=448, out_features=448, bias=True)
              (output_proj): Linear(in_features=448, out_features=448, bias=True)
            )
            (drop_path): DropPath(drop_prob=0.175)
            (norm2): Sequential(
              (0): LayerNorm((448,), eps=1e-06, elementwise_affine=True)
            )
            (mlp): MLPLayer(
              (fc1): Linear(in_features=448, out_features=1792, bias=True)
              (act): GELU(approximate=none)
              (fc2): Linear(in_features=1792, out_features=448, bias=True)
              (drop): Dropout(p=0.0, inplace=False)
            )
          )
          (7): InternImageLayer(
            (norm1): Sequential(
              (0): LayerNorm((448,), eps=1e-06, elementwise_affine=True)
            )
            (dcn): DCNv3(
              (dw_conv): Sequential(
                (0): Conv2d(448, 448, kernel_size=(3, 3), stride=(1, 1), padding=(1, 1), groups=448)
                (1): Sequential(
                  (0): to_channels_last()
                  (1): LayerNorm((448,), eps=1e-06, elementwise_affine=True)
                )
                (2): GELU(approximate=none)
              )
              (offset): Linear(in_features=448, out_features=504, bias=True)
              (mask): Linear(in_features=448, out_features=252, bias=True)
              (input_proj): Linear(in_features=448, out_features=448, bias=True)
              (output_proj): Linear(in_features=448, out_features=448, bias=True)
            )
            (drop_path): DropPath(drop_prob=0.188)
            (norm2): Sequential(
              (0): LayerNorm((448,), eps=1e-06, elementwise_affine=True)
            )
            (mlp): MLPLayer(
              (fc1): Linear(in_features=448, out_features=1792, bias=True)
              (act): GELU(approximate=none)
              (fc2): Linear(in_features=1792, out_features=448, bias=True)
              (drop): Dropout(p=0.0, inplace=False)
            )
          )
          (8): InternImageLayer(
            (norm1): Sequential(
              (0): LayerNorm((448,), eps=1e-06, elementwise_affine=True)
            )
            (dcn): DCNv3(
              (dw_conv): Sequential(
                (0): Conv2d(448, 448, kernel_size=(3, 3), stride=(1, 1), padding=(1, 1), groups=448)
                (1): Sequential(
                  (0): to_channels_last()
                  (1): LayerNorm((448,), eps=1e-06, elementwise_affine=True)
                )
                (2): GELU(approximate=none)
              )
              (offset): Linear(in_features=448, out_features=504, bias=True)
              (mask): Linear(in_features=448, out_features=252, bias=True)
              (input_proj): Linear(in_features=448, out_features=448, bias=True)
              (output_proj): Linear(in_features=448, out_features=448, bias=True)
            )
            (drop_path): DropPath(drop_prob=0.200)
            (norm2): Sequential(
              (0): LayerNorm((448,), eps=1e-06, elementwise_affine=True)
            )
            (mlp): MLPLayer(
              (fc1): Linear(in_features=448, out_features=1792, bias=True)
              (act): GELU(approximate=none)
              (fc2): Linear(in_features=1792, out_features=448, bias=True)
              (drop): Dropout(p=0.0, inplace=False)
            )
          )
          (9): InternImageLayer(
            (norm1): Sequential(
              (0): LayerNorm((448,), eps=1e-06, elementwise_affine=True)
            )
            (dcn): DCNv3(
              (dw_conv): Sequential(
                (0): Conv2d(448, 448, kernel_size=(3, 3), stride=(1, 1), padding=(1, 1), groups=448)
                (1): Sequential(
                  (0): to_channels_last()
                  (1): LayerNorm((448,), eps=1e-06, elementwise_affine=True)
                )
                (2): GELU(approximate=none)
              )
              (offset): Linear(in_features=448, out_features=504, bias=True)
              (mask): Linear(in_features=448, out_features=252, bias=True)
              (input_proj): Linear(in_features=448, out_features=448, bias=True)
              (output_proj): Linear(in_features=448, out_features=448, bias=True)
            )
            (drop_path): DropPath(drop_prob=0.213)
            (norm2): Sequential(
              (0): LayerNorm((448,), eps=1e-06, elementwise_affine=True)
            )
            (mlp): MLPLayer(
              (fc1): Linear(in_features=448, out_features=1792, bias=True)
              (act): GELU(approximate=none)
              (fc2): Linear(in_features=1792, out_features=448, bias=True)
              (drop): Dropout(p=0.0, inplace=False)
            )
          )
          (10): InternImageLayer(
            (norm1): Sequential(
              (0): LayerNorm((448,), eps=1e-06, elementwise_affine=True)
            )
            (dcn): DCNv3(
              (dw_conv): Sequential(
                (0): Conv2d(448, 448, kernel_size=(3, 3), stride=(1, 1), padding=(1, 1), groups=448)
                (1): Sequential(
                  (0): to_channels_last()
                  (1): LayerNorm((448,), eps=1e-06, elementwise_affine=True)
                )
                (2): GELU(approximate=none)
              )
              (offset): Linear(in_features=448, out_features=504, bias=True)
              (mask): Linear(in_features=448, out_features=252, bias=True)
              (input_proj): Linear(in_features=448, out_features=448, bias=True)
              (output_proj): Linear(in_features=448, out_features=448, bias=True)
            )
            (drop_path): DropPath(drop_prob=0.225)
            (norm2): Sequential(
              (0): LayerNorm((448,), eps=1e-06, elementwise_affine=True)
            )
            (mlp): MLPLayer(
              (fc1): Linear(in_features=448, out_features=1792, bias=True)
              (act): GELU(approximate=none)
              (fc2): Linear(in_features=1792, out_features=448, bias=True)
              (drop): Dropout(p=0.0, inplace=False)
            )
          )
          (11): InternImageLayer(
            (norm1): Sequential(
              (0): LayerNorm((448,), eps=1e-06, elementwise_affine=True)
            )
            (dcn): DCNv3(
              (dw_conv): Sequential(
                (0): Conv2d(448, 448, kernel_size=(3, 3), stride=(1, 1), padding=(1, 1), groups=448)
                (1): Sequential(
                  (0): to_channels_last()
                  (1): LayerNorm((448,), eps=1e-06, elementwise_affine=True)
                )
                (2): GELU(approximate=none)
              )
              (offset): Linear(in_features=448, out_features=504, bias=True)
              (mask): Linear(in_features=448, out_features=252, bias=True)
              (input_proj): Linear(in_features=448, out_features=448, bias=True)
              (output_proj): Linear(in_features=448, out_features=448, bias=True)
            )
            (drop_path): DropPath(drop_prob=0.238)
            (norm2): Sequential(
              (0): LayerNorm((448,), eps=1e-06, elementwise_affine=True)
            )
            (mlp): MLPLayer(
              (fc1): Linear(in_features=448, out_features=1792, bias=True)
              (act): GELU(approximate=none)
              (fc2): Linear(in_features=1792, out_features=448, bias=True)
              (drop): Dropout(p=0.0, inplace=False)
            )
          )
          (12): InternImageLayer(
            (norm1): Sequential(
              (0): LayerNorm((448,), eps=1e-06, elementwise_affine=True)
            )
            (dcn): DCNv3(
              (dw_conv): Sequential(
                (0): Conv2d(448, 448, kernel_size=(3, 3), stride=(1, 1), padding=(1, 1), groups=448)
                (1): Sequential(
                  (0): to_channels_last()
                  (1): LayerNorm((448,), eps=1e-06, elementwise_affine=True)
                )
                (2): GELU(approximate=none)
              )
              (offset): Linear(in_features=448, out_features=504, bias=True)
              (mask): Linear(in_features=448, out_features=252, bias=True)
              (input_proj): Linear(in_features=448, out_features=448, bias=True)
              (output_proj): Linear(in_features=448, out_features=448, bias=True)
            )
            (drop_path): DropPath(drop_prob=0.250)
            (norm2): Sequential(
              (0): LayerNorm((448,), eps=1e-06, elementwise_affine=True)
            )
            (mlp): MLPLayer(
              (fc1): Linear(in_features=448, out_features=1792, bias=True)
              (act): GELU(approximate=none)
              (fc2): Linear(in_features=1792, out_features=448, bias=True)
              (drop): Dropout(p=0.0, inplace=False)
            )
          )
          (13): InternImageLayer(
            (norm1): Sequential(
              (0): LayerNorm((448,), eps=1e-06, elementwise_affine=True)
            )
            (dcn): DCNv3(
              (dw_conv): Sequential(
                (0): Conv2d(448, 448, kernel_size=(3, 3), stride=(1, 1), padding=(1, 1), groups=448)
                (1): Sequential(
                  (0): to_channels_last()
                  (1): LayerNorm((448,), eps=1e-06, elementwise_affine=True)
                )
                (2): GELU(approximate=none)
              )
              (offset): Linear(in_features=448, out_features=504, bias=True)
              (mask): Linear(in_features=448, out_features=252, bias=True)
              (input_proj): Linear(in_features=448, out_features=448, bias=True)
              (output_proj): Linear(in_features=448, out_features=448, bias=True)
            )
            (drop_path): DropPath(drop_prob=0.262)
            (norm2): Sequential(
              (0): LayerNorm((448,), eps=1e-06, elementwise_affine=True)
            )
            (mlp): MLPLayer(
              (fc1): Linear(in_features=448, out_features=1792, bias=True)
              (act): GELU(approximate=none)
              (fc2): Linear(in_features=1792, out_features=448, bias=True)
              (drop): Dropout(p=0.0, inplace=False)
            )
          )
          (14): InternImageLayer(
            (norm1): Sequential(
              (0): LayerNorm((448,), eps=1e-06, elementwise_affine=True)
            )
            (dcn): DCNv3(
              (dw_conv): Sequential(
                (0): Conv2d(448, 448, kernel_size=(3, 3), stride=(1, 1), padding=(1, 1), groups=448)
                (1): Sequential(
                  (0): to_channels_last()
                  (1): LayerNorm((448,), eps=1e-06, elementwise_affine=True)
                )
                (2): GELU(approximate=none)
              )
              (offset): Linear(in_features=448, out_features=504, bias=True)
              (mask): Linear(in_features=448, out_features=252, bias=True)
              (input_proj): Linear(in_features=448, out_features=448, bias=True)
              (output_proj): Linear(in_features=448, out_features=448, bias=True)
            )
            (drop_path): DropPath(drop_prob=0.275)
            (norm2): Sequential(
              (0): LayerNorm((448,), eps=1e-06, elementwise_affine=True)
            )
            (mlp): MLPLayer(
              (fc1): Linear(in_features=448, out_features=1792, bias=True)
              (act): GELU(approximate=none)
              (fc2): Linear(in_features=1792, out_features=448, bias=True)
              (drop): Dropout(p=0.0, inplace=False)
            )
          )
          (15): InternImageLayer(
            (norm1): Sequential(
              (0): LayerNorm((448,), eps=1e-06, elementwise_affine=True)
            )
            (dcn): DCNv3(
              (dw_conv): Sequential(
                (0): Conv2d(448, 448, kernel_size=(3, 3), stride=(1, 1), padding=(1, 1), groups=448)
                (1): Sequential(
                  (0): to_channels_last()
                  (1): LayerNorm((448,), eps=1e-06, elementwise_affine=True)
                )
                (2): GELU(approximate=none)
              )
              (offset): Linear(in_features=448, out_features=504, bias=True)
              (mask): Linear(in_features=448, out_features=252, bias=True)
              (input_proj): Linear(in_features=448, out_features=448, bias=True)
              (output_proj): Linear(in_features=448, out_features=448, bias=True)
            )
            (drop_path): DropPath(drop_prob=0.287)
            (norm2): Sequential(
              (0): LayerNorm((448,), eps=1e-06, elementwise_affine=True)
            )
            (mlp): MLPLayer(
              (fc1): Linear(in_features=448, out_features=1792, bias=True)
              (act): GELU(approximate=none)
              (fc2): Linear(in_features=1792, out_features=448, bias=True)
              (drop): Dropout(p=0.0, inplace=False)
            )
          )
          (16): InternImageLayer(
            (norm1): Sequential(
              (0): LayerNorm((448,), eps=1e-06, elementwise_affine=True)
            )
            (dcn): DCNv3(
              (dw_conv): Sequential(
                (0): Conv2d(448, 448, kernel_size=(3, 3), stride=(1, 1), padding=(1, 1), groups=448)
                (1): Sequential(
                  (0): to_channels_last()
                  (1): LayerNorm((448,), eps=1e-06, elementwise_affine=True)
                )
                (2): GELU(approximate=none)
              )
              (offset): Linear(in_features=448, out_features=504, bias=True)
              (mask): Linear(in_features=448, out_features=252, bias=True)
              (input_proj): Linear(in_features=448, out_features=448, bias=True)
              (output_proj): Linear(in_features=448, out_features=448, bias=True)
            )
            (drop_path): DropPath(drop_prob=0.300)
            (norm2): Sequential(
              (0): LayerNorm((448,), eps=1e-06, elementwise_affine=True)
            )
            (mlp): MLPLayer(
              (fc1): Linear(in_features=448, out_features=1792, bias=True)
              (act): GELU(approximate=none)
              (fc2): Linear(in_features=1792, out_features=448, bias=True)
              (drop): Dropout(p=0.0, inplace=False)
            )
          )
          (17): InternImageLayer(
            (norm1): Sequential(
              (0): LayerNorm((448,), eps=1e-06, elementwise_affine=True)
            )
            (dcn): DCNv3(
              (dw_conv): Sequential(
                (0): Conv2d(448, 448, kernel_size=(3, 3), stride=(1, 1), padding=(1, 1), groups=448)
                (1): Sequential(
                  (0): to_channels_last()
                  (1): LayerNorm((448,), eps=1e-06, elementwise_affine=True)
                )
                (2): GELU(approximate=none)
              )
              (offset): Linear(in_features=448, out_features=504, bias=True)
              (mask): Linear(in_features=448, out_features=252, bias=True)
              (input_proj): Linear(in_features=448, out_features=448, bias=True)
              (output_proj): Linear(in_features=448, out_features=448, bias=True)
            )
            (drop_path): DropPath(drop_prob=0.312)
            (norm2): Sequential(
              (0): LayerNorm((448,), eps=1e-06, elementwise_affine=True)
            )
            (mlp): MLPLayer(
              (fc1): Linear(in_features=448, out_features=1792, bias=True)
              (act): GELU(approximate=none)
              (fc2): Linear(in_features=1792, out_features=448, bias=True)
              (drop): Dropout(p=0.0, inplace=False)
            )
          )
          (18): InternImageLayer(
            (norm1): Sequential(
              (0): LayerNorm((448,), eps=1e-06, elementwise_affine=True)
            )
            (dcn): DCNv3(
              (dw_conv): Sequential(
                (0): Conv2d(448, 448, kernel_size=(3, 3), stride=(1, 1), padding=(1, 1), groups=448)
                (1): Sequential(
                  (0): to_channels_last()
                  (1): LayerNorm((448,), eps=1e-06, elementwise_affine=True)
                )
                (2): GELU(approximate=none)
              )
              (offset): Linear(in_features=448, out_features=504, bias=True)
              (mask): Linear(in_features=448, out_features=252, bias=True)
              (input_proj): Linear(in_features=448, out_features=448, bias=True)
              (output_proj): Linear(in_features=448, out_features=448, bias=True)
            )
            (drop_path): DropPath(drop_prob=0.325)
            (norm2): Sequential(
              (0): LayerNorm((448,), eps=1e-06, elementwise_affine=True)
            )
            (mlp): MLPLayer(
              (fc1): Linear(in_features=448, out_features=1792, bias=True)
              (act): GELU(approximate=none)
              (fc2): Linear(in_features=1792, out_features=448, bias=True)
              (drop): Dropout(p=0.0, inplace=False)
            )
          )
          (19): InternImageLayer(
            (norm1): Sequential(
              (0): LayerNorm((448,), eps=1e-06, elementwise_affine=True)
            )
            (dcn): DCNv3(
              (dw_conv): Sequential(
                (0): Conv2d(448, 448, kernel_size=(3, 3), stride=(1, 1), padding=(1, 1), groups=448)
                (1): Sequential(
                  (0): to_channels_last()
                  (1): LayerNorm((448,), eps=1e-06, elementwise_affine=True)
                )
                (2): GELU(approximate=none)
              )
              (offset): Linear(in_features=448, out_features=504, bias=True)
              (mask): Linear(in_features=448, out_features=252, bias=True)
              (input_proj): Linear(in_features=448, out_features=448, bias=True)
              (output_proj): Linear(in_features=448, out_features=448, bias=True)
            )
            (drop_path): DropPath(drop_prob=0.338)
            (norm2): Sequential(
              (0): LayerNorm((448,), eps=1e-06, elementwise_affine=True)
            )
            (mlp): MLPLayer(
              (fc1): Linear(in_features=448, out_features=1792, bias=True)
              (act): GELU(approximate=none)
              (fc2): Linear(in_features=1792, out_features=448, bias=True)
              (drop): Dropout(p=0.0, inplace=False)
            )
          )
          (20): InternImageLayer(
            (norm1): Sequential(
              (0): LayerNorm((448,), eps=1e-06, elementwise_affine=True)
            )
            (dcn): DCNv3(
              (dw_conv): Sequential(
                (0): Conv2d(448, 448, kernel_size=(3, 3), stride=(1, 1), padding=(1, 1), groups=448)
                (1): Sequential(
                  (0): to_channels_last()
                  (1): LayerNorm((448,), eps=1e-06, elementwise_affine=True)
                )
                (2): GELU(approximate=none)
              )
              (offset): Linear(in_features=448, out_features=504, bias=True)
              (mask): Linear(in_features=448, out_features=252, bias=True)
              (input_proj): Linear(in_features=448, out_features=448, bias=True)
              (output_proj): Linear(in_features=448, out_features=448, bias=True)
            )
            (drop_path): DropPath(drop_prob=0.350)
            (norm2): Sequential(
              (0): LayerNorm((448,), eps=1e-06, elementwise_affine=True)
            )
            (mlp): MLPLayer(
              (fc1): Linear(in_features=448, out_features=1792, bias=True)
              (act): GELU(approximate=none)
              (fc2): Linear(in_features=1792, out_features=448, bias=True)
              (drop): Dropout(p=0.0, inplace=False)
            )
          )
        )
        (downsample): DownsampleLayer(
          (conv): Conv2d(448, 896, kernel_size=(3, 3), stride=(2, 2), padding=(1, 1), bias=False)
          (norm): Sequential(
            (0): to_channels_last()
            (1): LayerNorm((896,), eps=1e-06, elementwise_affine=True)
          )
        )
      )
      (3): InternImageBlock(
        (blocks): ModuleList(
          (0): InternImageLayer(
            (norm1): Sequential(
              (0): LayerNorm((896,), eps=1e-06, elementwise_affine=True)
            )
            (dcn): DCNv3(
              (dw_conv): Sequential(
                (0): Conv2d(896, 896, kernel_size=(3, 3), stride=(1, 1), padding=(1, 1), groups=896)
                (1): Sequential(
                  (0): to_channels_last()
                  (1): LayerNorm((896,), eps=1e-06, elementwise_affine=True)
                )
                (2): GELU(approximate=none)
              )
              (offset): Linear(in_features=896, out_features=1008, bias=True)
              (mask): Linear(in_features=896, out_features=504, bias=True)
              (input_proj): Linear(in_features=896, out_features=896, bias=True)
              (output_proj): Linear(in_features=896, out_features=896, bias=True)
            )
            (drop_path): DropPath(drop_prob=0.363)
            (norm2): Sequential(
              (0): LayerNorm((896,), eps=1e-06, elementwise_affine=True)
            )
            (mlp): MLPLayer(
              (fc1): Linear(in_features=896, out_features=3584, bias=True)
              (act): GELU(approximate=none)
              (fc2): Linear(in_features=3584, out_features=896, bias=True)
              (drop): Dropout(p=0.0, inplace=False)
            )
          )
          (1): InternImageLayer(
            (norm1): Sequential(
              (0): LayerNorm((896,), eps=1e-06, elementwise_affine=True)
            )
            (dcn): DCNv3(
              (dw_conv): Sequential(
                (0): Conv2d(896, 896, kernel_size=(3, 3), stride=(1, 1), padding=(1, 1), groups=896)
                (1): Sequential(
                  (0): to_channels_last()
                  (1): LayerNorm((896,), eps=1e-06, elementwise_affine=True)
                )
                (2): GELU(approximate=none)
              )
              (offset): Linear(in_features=896, out_features=1008, bias=True)
              (mask): Linear(in_features=896, out_features=504, bias=True)
              (input_proj): Linear(in_features=896, out_features=896, bias=True)
              (output_proj): Linear(in_features=896, out_features=896, bias=True)
            )
            (drop_path): DropPath(drop_prob=0.375)
            (norm2): Sequential(
              (0): LayerNorm((896,), eps=1e-06, elementwise_affine=True)
            )
            (mlp): MLPLayer(
              (fc1): Linear(in_features=896, out_features=3584, bias=True)
              (act): GELU(approximate=none)
              (fc2): Linear(in_features=3584, out_features=896, bias=True)
              (drop): Dropout(p=0.0, inplace=False)
            )
          )
          (2): InternImageLayer(
            (norm1): Sequential(
              (0): LayerNorm((896,), eps=1e-06, elementwise_affine=True)
            )
            (dcn): DCNv3(
              (dw_conv): Sequential(
                (0): Conv2d(896, 896, kernel_size=(3, 3), stride=(1, 1), padding=(1, 1), groups=896)
                (1): Sequential(
                  (0): to_channels_last()
                  (1): LayerNorm((896,), eps=1e-06, elementwise_affine=True)
                )
                (2): GELU(approximate=none)
              )
              (offset): Linear(in_features=896, out_features=1008, bias=True)
              (mask): Linear(in_features=896, out_features=504, bias=True)
              (input_proj): Linear(in_features=896, out_features=896, bias=True)
              (output_proj): Linear(in_features=896, out_features=896, bias=True)
            )
            (drop_path): DropPath(drop_prob=0.388)
            (norm2): Sequential(
              (0): LayerNorm((896,), eps=1e-06, elementwise_affine=True)
            )
            (mlp): MLPLayer(
              (fc1): Linear(in_features=896, out_features=3584, bias=True)
              (act): GELU(approximate=none)
              (fc2): Linear(in_features=3584, out_features=896, bias=True)
              (drop): Dropout(p=0.0, inplace=False)
            )
          )
          (3): InternImageLayer(
            (norm1): Sequential(
              (0): LayerNorm((896,), eps=1e-06, elementwise_affine=True)
            )
            (dcn): DCNv3(
              (dw_conv): Sequential(
                (0): Conv2d(896, 896, kernel_size=(3, 3), stride=(1, 1), padding=(1, 1), groups=896)
                (1): Sequential(
                  (0): to_channels_last()
                  (1): LayerNorm((896,), eps=1e-06, elementwise_affine=True)
                )
                (2): GELU(approximate=none)
              )
              (offset): Linear(in_features=896, out_features=1008, bias=True)
              (mask): Linear(in_features=896, out_features=504, bias=True)
              (input_proj): Linear(in_features=896, out_features=896, bias=True)
              (output_proj): Linear(in_features=896, out_features=896, bias=True)
            )
            (drop_path): DropPath(drop_prob=0.400)
            (norm2): Sequential(
              (0): LayerNorm((896,), eps=1e-06, elementwise_affine=True)
            )
            (mlp): MLPLayer(
              (fc1): Linear(in_features=896, out_features=3584, bias=True)
              (act): GELU(approximate=none)
              (fc2): Linear(in_features=3584, out_features=896, bias=True)
              (drop): Dropout(p=0.0, inplace=False)
            )
          )
        )
      )
    )
  )
  (decode_head): UPerHead(
    input_transform=multiple_select, ignore_index=255, align_corners=False
    (loss_decode): CrossEntropyLoss(avg_non_ignore=False)
    (conv_seg): Conv2d(512, 150, kernel_size=(1, 1), stride=(1, 1))
    (dropout): Dropout2d(p=0.1, inplace=False)
    (psp_modules): PPM(
      (0): Sequential(
        (0): AdaptiveAvgPool2d(output_size=1)
        (1): ConvModule(
          (conv): Conv2d(896, 512, kernel_size=(1, 1), stride=(1, 1), bias=False)
          (bn): SyncBatchNorm(512, eps=1e-05, momentum=0.1, affine=True, track_running_stats=True)
          (activate): ReLU(inplace=True)
        )
      )
      (1): Sequential(
        (0): AdaptiveAvgPool2d(output_size=2)
        (1): ConvModule(
          (conv): Conv2d(896, 512, kernel_size=(1, 1), stride=(1, 1), bias=False)
          (bn): SyncBatchNorm(512, eps=1e-05, momentum=0.1, affine=True, track_running_stats=True)
          (activate): ReLU(inplace=True)
        )
      )
      (2): Sequential(
        (0): AdaptiveAvgPool2d(output_size=3)
        (1): ConvModule(
          (conv): Conv2d(896, 512, kernel_size=(1, 1), stride=(1, 1), bias=False)
          (bn): SyncBatchNorm(512, eps=1e-05, momentum=0.1, affine=True, track_running_stats=True)
          (activate): ReLU(inplace=True)
        )
      )
      (3): Sequential(
        (0): AdaptiveAvgPool2d(output_size=6)
        (1): ConvModule(
          (conv): Conv2d(896, 512, kernel_size=(1, 1), stride=(1, 1), bias=False)
          (bn): SyncBatchNorm(512, eps=1e-05, momentum=0.1, affine=True, track_running_stats=True)
          (activate): ReLU(inplace=True)
        )
      )
    )
    (bottleneck): ConvModule(
      (conv): Conv2d(2944, 512, kernel_size=(3, 3), stride=(1, 1), padding=(1, 1), bias=False)
      (bn): SyncBatchNorm(512, eps=1e-05, momentum=0.1, affine=True, track_running_stats=True)
      (activate): ReLU(inplace=True)
    )
    (lateral_convs): ModuleList(
      (0): ConvModule(
        (conv): Conv2d(112, 512, kernel_size=(1, 1), stride=(1, 1), bias=False)
        (bn): SyncBatchNorm(512, eps=1e-05, momentum=0.1, affine=True, track_running_stats=True)
        (activate): ReLU()
      )
      (1): ConvModule(
        (conv): Conv2d(224, 512, kernel_size=(1, 1), stride=(1, 1), bias=False)
        (bn): SyncBatchNorm(512, eps=1e-05, momentum=0.1, affine=True, track_running_stats=True)
        (activate): ReLU()
      )
      (2): ConvModule(
        (conv): Conv2d(448, 512, kernel_size=(1, 1), stride=(1, 1), bias=False)
        (bn): SyncBatchNorm(512, eps=1e-05, momentum=0.1, affine=True, track_running_stats=True)
        (activate): ReLU()
      )
    )
    (fpn_convs): ModuleList(
      (0): ConvModule(
        (conv): Conv2d(512, 512, kernel_size=(3, 3), stride=(1, 1), padding=(1, 1), bias=False)
        (bn): SyncBatchNorm(512, eps=1e-05, momentum=0.1, affine=True, track_running_stats=True)
        (activate): ReLU()
      )
      (1): ConvModule(
        (conv): Conv2d(512, 512, kernel_size=(3, 3), stride=(1, 1), padding=(1, 1), bias=False)
        (bn): SyncBatchNorm(512, eps=1e-05, momentum=0.1, affine=True, track_running_stats=True)
        (activate): ReLU()
      )
      (2): ConvModule(
        (conv): Conv2d(512, 512, kernel_size=(3, 3), stride=(1, 1), padding=(1, 1), bias=False)
        (bn): SyncBatchNorm(512, eps=1e-05, momentum=0.1, affine=True, track_running_stats=True)
        (activate): ReLU()
      )
    )
    (fpn_bottleneck): ConvModule(
      (conv): Conv2d(2048, 512, kernel_size=(3, 3), stride=(1, 1), padding=(1, 1), bias=False)
      (bn): SyncBatchNorm(512, eps=1e-05, momentum=0.1, affine=True, track_running_stats=True)
      (activate): ReLU(inplace=True)
    )
  )
  init_cfg={'type': 'Normal', 'std': 0.01, 'override': {'name': 'conv_seg'}}
  (auxiliary_head): FCNHead(
    input_transform=None, ignore_index=255, align_corners=False
    (loss_decode): CrossEntropyLoss(avg_non_ignore=False)
    (conv_seg): Conv2d(256, 150, kernel_size=(1, 1), stride=(1, 1))
    (dropout): Dropout2d(p=0.1, inplace=False)
    (convs): Sequential(
      (0): ConvModule(
        (conv): Conv2d(448, 256, kernel_size=(3, 3), stride=(1, 1), padding=(1, 1), bias=False)
        (bn): SyncBatchNorm(256, eps=1e-05, momentum=0.1, affine=True, track_running_stats=True)
        (activate): ReLU(inplace=True)
      )
    )
  )
  init_cfg={'type': 'Normal', 'std': 0.01, 'override': {'name': 'conv_seg'}}
)
After assigning EncoderDecoder(
  (backbone): InternImage(
    (patch_embed): StemLayer(
      (conv1): Conv2d(4, 56, kernel_size=(3, 3), stride=(2, 2), padding=(1, 1), bias=False)
      (norm1): Sequential(
        (0): to_channels_last()
        (1): LayerNorm((56,), eps=1e-06, elementwise_affine=True)
        (2): to_channels_first()
      )
      (act): GELU(approximate=none)
      (conv2): Conv2d(56, 112, kernel_size=(3, 3), stride=(2, 2), padding=(1, 1))
      (norm2): Sequential(
        (0): to_channels_last()
        (1): LayerNorm((112,), eps=1e-06, elementwise_affine=True)
      )
    )
    (pos_drop): Dropout(p=0.0, inplace=False)
    (levels): ModuleList(
      (0): InternImageBlock(
        (blocks): ModuleList(
          (0): InternImageLayer(
            (norm1): Sequential(
              (0): LayerNorm((112,), eps=1e-06, elementwise_affine=True)
            )
            (dcn): DCNv3(
              (dw_conv): Sequential(
                (0): Conv2d(112, 112, kernel_size=(3, 3), stride=(1, 1), padding=(1, 1), groups=112)
                (1): Sequential(
                  (0): to_channels_last()
                  (1): LayerNorm((112,), eps=1e-06, elementwise_affine=True)
                )
                (2): GELU(approximate=none)
              )
              (offset): Linear(in_features=112, out_features=126, bias=True)
              (mask): Linear(in_features=112, out_features=63, bias=True)
              (input_proj): Linear(in_features=112, out_features=112, bias=True)
              (output_proj): Linear(in_features=112, out_features=112, bias=True)
            )
            (drop_path): Identity()
            (norm2): Sequential(
              (0): LayerNorm((112,), eps=1e-06, elementwise_affine=True)
            )
            (mlp): MLPLayer(
              (fc1): Linear(in_features=112, out_features=448, bias=True)
              (act): GELU(approximate=none)
              (fc2): Linear(in_features=448, out_features=112, bias=True)
              (drop): Dropout(p=0.0, inplace=False)
            )
          )
          (1): InternImageLayer(
            (norm1): Sequential(
              (0): LayerNorm((112,), eps=1e-06, elementwise_affine=True)
            )
            (dcn): DCNv3(
              (dw_conv): Sequential(
                (0): Conv2d(112, 112, kernel_size=(3, 3), stride=(1, 1), padding=(1, 1), groups=112)
                (1): Sequential(
                  (0): to_channels_last()
                  (1): LayerNorm((112,), eps=1e-06, elementwise_affine=True)
                )
                (2): GELU(approximate=none)
              )
              (offset): Linear(in_features=112, out_features=126, bias=True)
              (mask): Linear(in_features=112, out_features=63, bias=True)
              (input_proj): Linear(in_features=112, out_features=112, bias=True)
              (output_proj): Linear(in_features=112, out_features=112, bias=True)
            )
            (drop_path): DropPath(drop_prob=0.013)
            (norm2): Sequential(
              (0): LayerNorm((112,), eps=1e-06, elementwise_affine=True)
            )
            (mlp): MLPLayer(
              (fc1): Linear(in_features=112, out_features=448, bias=True)
              (act): GELU(approximate=none)
              (fc2): Linear(in_features=448, out_features=112, bias=True)
              (drop): Dropout(p=0.0, inplace=False)
            )
          )
          (2): InternImageLayer(
            (norm1): Sequential(
              (0): LayerNorm((112,), eps=1e-06, elementwise_affine=True)
            )
            (dcn): DCNv3(
              (dw_conv): Sequential(
                (0): Conv2d(112, 112, kernel_size=(3, 3), stride=(1, 1), padding=(1, 1), groups=112)
                (1): Sequential(
                  (0): to_channels_last()
                  (1): LayerNorm((112,), eps=1e-06, elementwise_affine=True)
                )
                (2): GELU(approximate=none)
              )
              (offset): Linear(in_features=112, out_features=126, bias=True)
              (mask): Linear(in_features=112, out_features=63, bias=True)
              (input_proj): Linear(in_features=112, out_features=112, bias=True)
              (output_proj): Linear(in_features=112, out_features=112, bias=True)
            )
            (drop_path): DropPath(drop_prob=0.025)
            (norm2): Sequential(
              (0): LayerNorm((112,), eps=1e-06, elementwise_affine=True)
            )
            (mlp): MLPLayer(
              (fc1): Linear(in_features=112, out_features=448, bias=True)
              (act): GELU(approximate=none)
              (fc2): Linear(in_features=448, out_features=112, bias=True)
              (drop): Dropout(p=0.0, inplace=False)
            )
          )
          (3): InternImageLayer(
            (norm1): Sequential(
              (0): LayerNorm((112,), eps=1e-06, elementwise_affine=True)
            )
            (dcn): DCNv3(
              (dw_conv): Sequential(
                (0): Conv2d(112, 112, kernel_size=(3, 3), stride=(1, 1), padding=(1, 1), groups=112)
                (1): Sequential(
                  (0): to_channels_last()
                  (1): LayerNorm((112,), eps=1e-06, elementwise_affine=True)
                )
                (2): GELU(approximate=none)
              )
              (offset): Linear(in_features=112, out_features=126, bias=True)
              (mask): Linear(in_features=112, out_features=63, bias=True)
              (input_proj): Linear(in_features=112, out_features=112, bias=True)
              (output_proj): Linear(in_features=112, out_features=112, bias=True)
            )
            (drop_path): DropPath(drop_prob=0.038)
            (norm2): Sequential(
              (0): LayerNorm((112,), eps=1e-06, elementwise_affine=True)
            )
            (mlp): MLPLayer(
              (fc1): Linear(in_features=112, out_features=448, bias=True)
              (act): GELU(approximate=none)
              (fc2): Linear(in_features=448, out_features=112, bias=True)
              (drop): Dropout(p=0.0, inplace=False)
            )
          )
        )
        (downsample): DownsampleLayer(
          (conv): Conv2d(112, 224, kernel_size=(3, 3), stride=(2, 2), padding=(1, 1), bias=False)
          (norm): Sequential(
            (0): to_channels_last()
            (1): LayerNorm((224,), eps=1e-06, elementwise_affine=True)
          )
        )
      )
      (1): InternImageBlock(
        (blocks): ModuleList(
          (0): InternImageLayer(
            (norm1): Sequential(
              (0): LayerNorm((224,), eps=1e-06, elementwise_affine=True)
            )
            (dcn): DCNv3(
              (dw_conv): Sequential(
                (0): Conv2d(224, 224, kernel_size=(3, 3), stride=(1, 1), padding=(1, 1), groups=224)
                (1): Sequential(
                  (0): to_channels_last()
                  (1): LayerNorm((224,), eps=1e-06, elementwise_affine=True)
                )
                (2): GELU(approximate=none)
              )
              (offset): Linear(in_features=224, out_features=252, bias=True)
              (mask): Linear(in_features=224, out_features=126, bias=True)
              (input_proj): Linear(in_features=224, out_features=224, bias=True)
              (output_proj): Linear(in_features=224, out_features=224, bias=True)
            )
            (drop_path): DropPath(drop_prob=0.050)
            (norm2): Sequential(
              (0): LayerNorm((224,), eps=1e-06, elementwise_affine=True)
            )
            (mlp): MLPLayer(
              (fc1): Linear(in_features=224, out_features=896, bias=True)
              (act): GELU(approximate=none)
              (fc2): Linear(in_features=896, out_features=224, bias=True)
              (drop): Dropout(p=0.0, inplace=False)
            )
          )
          (1): InternImageLayer(
            (norm1): Sequential(
              (0): LayerNorm((224,), eps=1e-06, elementwise_affine=True)
            )
            (dcn): DCNv3(
              (dw_conv): Sequential(
                (0): Conv2d(224, 224, kernel_size=(3, 3), stride=(1, 1), padding=(1, 1), groups=224)
                (1): Sequential(
                  (0): to_channels_last()
                  (1): LayerNorm((224,), eps=1e-06, elementwise_affine=True)
                )
                (2): GELU(approximate=none)
              )
              (offset): Linear(in_features=224, out_features=252, bias=True)
              (mask): Linear(in_features=224, out_features=126, bias=True)
              (input_proj): Linear(in_features=224, out_features=224, bias=True)
              (output_proj): Linear(in_features=224, out_features=224, bias=True)
            )
            (drop_path): DropPath(drop_prob=0.062)
            (norm2): Sequential(
              (0): LayerNorm((224,), eps=1e-06, elementwise_affine=True)
            )
            (mlp): MLPLayer(
              (fc1): Linear(in_features=224, out_features=896, bias=True)
              (act): GELU(approximate=none)
              (fc2): Linear(in_features=896, out_features=224, bias=True)
              (drop): Dropout(p=0.0, inplace=False)
            )
          )
          (2): InternImageLayer(
            (norm1): Sequential(
              (0): LayerNorm((224,), eps=1e-06, elementwise_affine=True)
            )
            (dcn): DCNv3(
              (dw_conv): Sequential(
                (0): Conv2d(224, 224, kernel_size=(3, 3), stride=(1, 1), padding=(1, 1), groups=224)
                (1): Sequential(
                  (0): to_channels_last()
                  (1): LayerNorm((224,), eps=1e-06, elementwise_affine=True)
                )
                (2): GELU(approximate=none)
              )
              (offset): Linear(in_features=224, out_features=252, bias=True)
              (mask): Linear(in_features=224, out_features=126, bias=True)
              (input_proj): Linear(in_features=224, out_features=224, bias=True)
              (output_proj): Linear(in_features=224, out_features=224, bias=True)
            )
            (drop_path): DropPath(drop_prob=0.075)
            (norm2): Sequential(
              (0): LayerNorm((224,), eps=1e-06, elementwise_affine=True)
            )
            (mlp): MLPLayer(
              (fc1): Linear(in_features=224, out_features=896, bias=True)
              (act): GELU(approximate=none)
              (fc2): Linear(in_features=896, out_features=224, bias=True)
              (drop): Dropout(p=0.0, inplace=False)
            )
          )
          (3): InternImageLayer(
            (norm1): Sequential(
              (0): LayerNorm((224,), eps=1e-06, elementwise_affine=True)
            )
            (dcn): DCNv3(
              (dw_conv): Sequential(
                (0): Conv2d(224, 224, kernel_size=(3, 3), stride=(1, 1), padding=(1, 1), groups=224)
                (1): Sequential(
                  (0): to_channels_last()
                  (1): LayerNorm((224,), eps=1e-06, elementwise_affine=True)
                )
                (2): GELU(approximate=none)
              )
              (offset): Linear(in_features=224, out_features=252, bias=True)
              (mask): Linear(in_features=224, out_features=126, bias=True)
              (input_proj): Linear(in_features=224, out_features=224, bias=True)
              (output_proj): Linear(in_features=224, out_features=224, bias=True)
            )
            (drop_path): DropPath(drop_prob=0.087)
            (norm2): Sequential(
              (0): LayerNorm((224,), eps=1e-06, elementwise_affine=True)
            )
            (mlp): MLPLayer(
              (fc1): Linear(in_features=224, out_features=896, bias=True)
              (act): GELU(approximate=none)
              (fc2): Linear(in_features=896, out_features=224, bias=True)
              (drop): Dropout(p=0.0, inplace=False)
            )
          )
        )
        (downsample): DownsampleLayer(
          (conv): Conv2d(224, 448, kernel_size=(3, 3), stride=(2, 2), padding=(1, 1), bias=False)
          (norm): Sequential(
            (0): to_channels_last()
            (1): LayerNorm((448,), eps=1e-06, elementwise_affine=True)
          )
        )
      )
      (2): InternImageBlock(
        (blocks): ModuleList(
          (0): InternImageLayer(
            (norm1): Sequential(
              (0): LayerNorm((448,), eps=1e-06, elementwise_affine=True)
            )
            (dcn): DCNv3(
              (dw_conv): Sequential(
                (0): Conv2d(448, 448, kernel_size=(3, 3), stride=(1, 1), padding=(1, 1), groups=448)
                (1): Sequential(
                  (0): to_channels_last()
                  (1): LayerNorm((448,), eps=1e-06, elementwise_affine=True)
                )
                (2): GELU(approximate=none)
              )
              (offset): Linear(in_features=448, out_features=504, bias=True)
              (mask): Linear(in_features=448, out_features=252, bias=True)
              (input_proj): Linear(in_features=448, out_features=448, bias=True)
              (output_proj): Linear(in_features=448, out_features=448, bias=True)
            )
            (drop_path): DropPath(drop_prob=0.100)
            (norm2): Sequential(
              (0): LayerNorm((448,), eps=1e-06, elementwise_affine=True)
            )
            (mlp): MLPLayer(
              (fc1): Linear(in_features=448, out_features=1792, bias=True)
              (act): GELU(approximate=none)
              (fc2): Linear(in_features=1792, out_features=448, bias=True)
              (drop): Dropout(p=0.0, inplace=False)
            )
          )
          (1): InternImageLayer(
            (norm1): Sequential(
              (0): LayerNorm((448,), eps=1e-06, elementwise_affine=True)
            )
            (dcn): DCNv3(
              (dw_conv): Sequential(
                (0): Conv2d(448, 448, kernel_size=(3, 3), stride=(1, 1), padding=(1, 1), groups=448)
                (1): Sequential(
                  (0): to_channels_last()
                  (1): LayerNorm((448,), eps=1e-06, elementwise_affine=True)
                )
                (2): GELU(approximate=none)
              )
              (offset): Linear(in_features=448, out_features=504, bias=True)
              (mask): Linear(in_features=448, out_features=252, bias=True)
              (input_proj): Linear(in_features=448, out_features=448, bias=True)
              (output_proj): Linear(in_features=448, out_features=448, bias=True)
            )
            (drop_path): DropPath(drop_prob=0.113)
            (norm2): Sequential(
              (0): LayerNorm((448,), eps=1e-06, elementwise_affine=True)
            )
            (mlp): MLPLayer(
              (fc1): Linear(in_features=448, out_features=1792, bias=True)
              (act): GELU(approximate=none)
              (fc2): Linear(in_features=1792, out_features=448, bias=True)
              (drop): Dropout(p=0.0, inplace=False)
            )
          )
          (2): InternImageLayer(
            (norm1): Sequential(
              (0): LayerNorm((448,), eps=1e-06, elementwise_affine=True)
            )
            (dcn): DCNv3(
              (dw_conv): Sequential(
                (0): Conv2d(448, 448, kernel_size=(3, 3), stride=(1, 1), padding=(1, 1), groups=448)
                (1): Sequential(
                  (0): to_channels_last()
                  (1): LayerNorm((448,), eps=1e-06, elementwise_affine=True)
                )
                (2): GELU(approximate=none)
              )
              (offset): Linear(in_features=448, out_features=504, bias=True)
              (mask): Linear(in_features=448, out_features=252, bias=True)
              (input_proj): Linear(in_features=448, out_features=448, bias=True)
              (output_proj): Linear(in_features=448, out_features=448, bias=True)
            )
            (drop_path): DropPath(drop_prob=0.125)
            (norm2): Sequential(
              (0): LayerNorm((448,), eps=1e-06, elementwise_affine=True)
            )
            (mlp): MLPLayer(
              (fc1): Linear(in_features=448, out_features=1792, bias=True)
              (act): GELU(approximate=none)
              (fc2): Linear(in_features=1792, out_features=448, bias=True)
              (drop): Dropout(p=0.0, inplace=False)
            )
          )
          (3): InternImageLayer(
            (norm1): Sequential(
              (0): LayerNorm((448,), eps=1e-06, elementwise_affine=True)
            )
            (dcn): DCNv3(
              (dw_conv): Sequential(
                (0): Conv2d(448, 448, kernel_size=(3, 3), stride=(1, 1), padding=(1, 1), groups=448)
                (1): Sequential(
                  (0): to_channels_last()
                  (1): LayerNorm((448,), eps=1e-06, elementwise_affine=True)
                )
                (2): GELU(approximate=none)
              )
              (offset): Linear(in_features=448, out_features=504, bias=True)
              (mask): Linear(in_features=448, out_features=252, bias=True)
              (input_proj): Linear(in_features=448, out_features=448, bias=True)
              (output_proj): Linear(in_features=448, out_features=448, bias=True)
            )
            (drop_path): DropPath(drop_prob=0.138)
            (norm2): Sequential(
              (0): LayerNorm((448,), eps=1e-06, elementwise_affine=True)
            )
            (mlp): MLPLayer(
              (fc1): Linear(in_features=448, out_features=1792, bias=True)
              (act): GELU(approximate=none)
              (fc2): Linear(in_features=1792, out_features=448, bias=True)
              (drop): Dropout(p=0.0, inplace=False)
            )
          )
          (4): InternImageLayer(
            (norm1): Sequential(
              (0): LayerNorm((448,), eps=1e-06, elementwise_affine=True)
            )
            (dcn): DCNv3(
              (dw_conv): Sequential(
                (0): Conv2d(448, 448, kernel_size=(3, 3), stride=(1, 1), padding=(1, 1), groups=448)
                (1): Sequential(
                  (0): to_channels_last()
                  (1): LayerNorm((448,), eps=1e-06, elementwise_affine=True)
                )
                (2): GELU(approximate=none)
              )
              (offset): Linear(in_features=448, out_features=504, bias=True)
              (mask): Linear(in_features=448, out_features=252, bias=True)
              (input_proj): Linear(in_features=448, out_features=448, bias=True)
              (output_proj): Linear(in_features=448, out_features=448, bias=True)
            )
            (drop_path): DropPath(drop_prob=0.150)
            (norm2): Sequential(
              (0): LayerNorm((448,), eps=1e-06, elementwise_affine=True)
            )
            (mlp): MLPLayer(
              (fc1): Linear(in_features=448, out_features=1792, bias=True)
              (act): GELU(approximate=none)
              (fc2): Linear(in_features=1792, out_features=448, bias=True)
              (drop): Dropout(p=0.0, inplace=False)
            )
          )
          (5): InternImageLayer(
            (norm1): Sequential(
              (0): LayerNorm((448,), eps=1e-06, elementwise_affine=True)
            )
            (dcn): DCNv3(
              (dw_conv): Sequential(
                (0): Conv2d(448, 448, kernel_size=(3, 3), stride=(1, 1), padding=(1, 1), groups=448)
                (1): Sequential(
                  (0): to_channels_last()
                  (1): LayerNorm((448,), eps=1e-06, elementwise_affine=True)
                )
                (2): GELU(approximate=none)
              )
              (offset): Linear(in_features=448, out_features=504, bias=True)
              (mask): Linear(in_features=448, out_features=252, bias=True)
              (input_proj): Linear(in_features=448, out_features=448, bias=True)
              (output_proj): Linear(in_features=448, out_features=448, bias=True)
            )
            (drop_path): DropPath(drop_prob=0.162)
            (norm2): Sequential(
              (0): LayerNorm((448,), eps=1e-06, elementwise_affine=True)
            )
            (mlp): MLPLayer(
              (fc1): Linear(in_features=448, out_features=1792, bias=True)
              (act): GELU(approximate=none)
              (fc2): Linear(in_features=1792, out_features=448, bias=True)
              (drop): Dropout(p=0.0, inplace=False)
            )
          )
          (6): InternImageLayer(
            (norm1): Sequential(
              (0): LayerNorm((448,), eps=1e-06, elementwise_affine=True)
            )
            (dcn): DCNv3(
              (dw_conv): Sequential(
                (0): Conv2d(448, 448, kernel_size=(3, 3), stride=(1, 1), padding=(1, 1), groups=448)
                (1): Sequential(
                  (0): to_channels_last()
                  (1): LayerNorm((448,), eps=1e-06, elementwise_affine=True)
                )
                (2): GELU(approximate=none)
              )
              (offset): Linear(in_features=448, out_features=504, bias=True)
              (mask): Linear(in_features=448, out_features=252, bias=True)
              (input_proj): Linear(in_features=448, out_features=448, bias=True)
              (output_proj): Linear(in_features=448, out_features=448, bias=True)
            )
            (drop_path): DropPath(drop_prob=0.175)
            (norm2): Sequential(
              (0): LayerNorm((448,), eps=1e-06, elementwise_affine=True)
            )
            (mlp): MLPLayer(
              (fc1): Linear(in_features=448, out_features=1792, bias=True)
              (act): GELU(approximate=none)
              (fc2): Linear(in_features=1792, out_features=448, bias=True)
              (drop): Dropout(p=0.0, inplace=False)
            )
          )
          (7): InternImageLayer(
            (norm1): Sequential(
              (0): LayerNorm((448,), eps=1e-06, elementwise_affine=True)
            )
            (dcn): DCNv3(
              (dw_conv): Sequential(
                (0): Conv2d(448, 448, kernel_size=(3, 3), stride=(1, 1), padding=(1, 1), groups=448)
                (1): Sequential(
                  (0): to_channels_last()
                  (1): LayerNorm((448,), eps=1e-06, elementwise_affine=True)
                )
                (2): GELU(approximate=none)
              )
              (offset): Linear(in_features=448, out_features=504, bias=True)
              (mask): Linear(in_features=448, out_features=252, bias=True)
              (input_proj): Linear(in_features=448, out_features=448, bias=True)
              (output_proj): Linear(in_features=448, out_features=448, bias=True)
            )
            (drop_path): DropPath(drop_prob=0.188)
            (norm2): Sequential(
              (0): LayerNorm((448,), eps=1e-06, elementwise_affine=True)
            )
            (mlp): MLPLayer(
              (fc1): Linear(in_features=448, out_features=1792, bias=True)
              (act): GELU(approximate=none)
              (fc2): Linear(in_features=1792, out_features=448, bias=True)
              (drop): Dropout(p=0.0, inplace=False)
            )
          )
          (8): InternImageLayer(
            (norm1): Sequential(
              (0): LayerNorm((448,), eps=1e-06, elementwise_affine=True)
            )
            (dcn): DCNv3(
              (dw_conv): Sequential(
                (0): Conv2d(448, 448, kernel_size=(3, 3), stride=(1, 1), padding=(1, 1), groups=448)
                (1): Sequential(
                  (0): to_channels_last()
                  (1): LayerNorm((448,), eps=1e-06, elementwise_affine=True)
                )
                (2): GELU(approximate=none)
              )
              (offset): Linear(in_features=448, out_features=504, bias=True)
              (mask): Linear(in_features=448, out_features=252, bias=True)
              (input_proj): Linear(in_features=448, out_features=448, bias=True)
              (output_proj): Linear(in_features=448, out_features=448, bias=True)
            )
            (drop_path): DropPath(drop_prob=0.200)
            (norm2): Sequential(
              (0): LayerNorm((448,), eps=1e-06, elementwise_affine=True)
            )
            (mlp): MLPLayer(
              (fc1): Linear(in_features=448, out_features=1792, bias=True)
              (act): GELU(approximate=none)
              (fc2): Linear(in_features=1792, out_features=448, bias=True)
              (drop): Dropout(p=0.0, inplace=False)
            )
          )
          (9): InternImageLayer(
            (norm1): Sequential(
              (0): LayerNorm((448,), eps=1e-06, elementwise_affine=True)
            )
            (dcn): DCNv3(
              (dw_conv): Sequential(
                (0): Conv2d(448, 448, kernel_size=(3, 3), stride=(1, 1), padding=(1, 1), groups=448)
                (1): Sequential(
                  (0): to_channels_last()
                  (1): LayerNorm((448,), eps=1e-06, elementwise_affine=True)
                )
                (2): GELU(approximate=none)
              )
              (offset): Linear(in_features=448, out_features=504, bias=True)
              (mask): Linear(in_features=448, out_features=252, bias=True)
              (input_proj): Linear(in_features=448, out_features=448, bias=True)
              (output_proj): Linear(in_features=448, out_features=448, bias=True)
            )
            (drop_path): DropPath(drop_prob=0.213)
            (norm2): Sequential(
              (0): LayerNorm((448,), eps=1e-06, elementwise_affine=True)
            )
            (mlp): MLPLayer(
              (fc1): Linear(in_features=448, out_features=1792, bias=True)
              (act): GELU(approximate=none)
              (fc2): Linear(in_features=1792, out_features=448, bias=True)
              (drop): Dropout(p=0.0, inplace=False)
            )
          )
          (10): InternImageLayer(
            (norm1): Sequential(
              (0): LayerNorm((448,), eps=1e-06, elementwise_affine=True)
            )
            (dcn): DCNv3(
              (dw_conv): Sequential(
                (0): Conv2d(448, 448, kernel_size=(3, 3), stride=(1, 1), padding=(1, 1), groups=448)
                (1): Sequential(
                  (0): to_channels_last()
                  (1): LayerNorm((448,), eps=1e-06, elementwise_affine=True)
                )
                (2): GELU(approximate=none)
              )
              (offset): Linear(in_features=448, out_features=504, bias=True)
              (mask): Linear(in_features=448, out_features=252, bias=True)
              (input_proj): Linear(in_features=448, out_features=448, bias=True)
              (output_proj): Linear(in_features=448, out_features=448, bias=True)
            )
            (drop_path): DropPath(drop_prob=0.225)
            (norm2): Sequential(
              (0): LayerNorm((448,), eps=1e-06, elementwise_affine=True)
            )
            (mlp): MLPLayer(
              (fc1): Linear(in_features=448, out_features=1792, bias=True)
              (act): GELU(approximate=none)
              (fc2): Linear(in_features=1792, out_features=448, bias=True)
              (drop): Dropout(p=0.0, inplace=False)
            )
          )
          (11): InternImageLayer(
            (norm1): Sequential(
              (0): LayerNorm((448,), eps=1e-06, elementwise_affine=True)
            )
            (dcn): DCNv3(
              (dw_conv): Sequential(
                (0): Conv2d(448, 448, kernel_size=(3, 3), stride=(1, 1), padding=(1, 1), groups=448)
                (1): Sequential(
                  (0): to_channels_last()
                  (1): LayerNorm((448,), eps=1e-06, elementwise_affine=True)
                )
                (2): GELU(approximate=none)
              )
              (offset): Linear(in_features=448, out_features=504, bias=True)
              (mask): Linear(in_features=448, out_features=252, bias=True)
              (input_proj): Linear(in_features=448, out_features=448, bias=True)
              (output_proj): Linear(in_features=448, out_features=448, bias=True)
            )
            (drop_path): DropPath(drop_prob=0.238)
            (norm2): Sequential(
              (0): LayerNorm((448,), eps=1e-06, elementwise_affine=True)
            )
            (mlp): MLPLayer(
              (fc1): Linear(in_features=448, out_features=1792, bias=True)
              (act): GELU(approximate=none)
              (fc2): Linear(in_features=1792, out_features=448, bias=True)
              (drop): Dropout(p=0.0, inplace=False)
            )
          )
          (12): InternImageLayer(
            (norm1): Sequential(
              (0): LayerNorm((448,), eps=1e-06, elementwise_affine=True)
            )
            (dcn): DCNv3(
              (dw_conv): Sequential(
                (0): Conv2d(448, 448, kernel_size=(3, 3), stride=(1, 1), padding=(1, 1), groups=448)
                (1): Sequential(
                  (0): to_channels_last()
                  (1): LayerNorm((448,), eps=1e-06, elementwise_affine=True)
                )
                (2): GELU(approximate=none)
              )
              (offset): Linear(in_features=448, out_features=504, bias=True)
              (mask): Linear(in_features=448, out_features=252, bias=True)
              (input_proj): Linear(in_features=448, out_features=448, bias=True)
              (output_proj): Linear(in_features=448, out_features=448, bias=True)
            )
            (drop_path): DropPath(drop_prob=0.250)
            (norm2): Sequential(
              (0): LayerNorm((448,), eps=1e-06, elementwise_affine=True)
            )
            (mlp): MLPLayer(
              (fc1): Linear(in_features=448, out_features=1792, bias=True)
              (act): GELU(approximate=none)
              (fc2): Linear(in_features=1792, out_features=448, bias=True)
              (drop): Dropout(p=0.0, inplace=False)
            )
          )
          (13): InternImageLayer(
            (norm1): Sequential(
              (0): LayerNorm((448,), eps=1e-06, elementwise_affine=True)
            )
            (dcn): DCNv3(
              (dw_conv): Sequential(
                (0): Conv2d(448, 448, kernel_size=(3, 3), stride=(1, 1), padding=(1, 1), groups=448)
                (1): Sequential(
                  (0): to_channels_last()
                  (1): LayerNorm((448,), eps=1e-06, elementwise_affine=True)
                )
                (2): GELU(approximate=none)
              )
              (offset): Linear(in_features=448, out_features=504, bias=True)
              (mask): Linear(in_features=448, out_features=252, bias=True)
              (input_proj): Linear(in_features=448, out_features=448, bias=True)
              (output_proj): Linear(in_features=448, out_features=448, bias=True)
            )
            (drop_path): DropPath(drop_prob=0.262)
            (norm2): Sequential(
              (0): LayerNorm((448,), eps=1e-06, elementwise_affine=True)
            )
            (mlp): MLPLayer(
              (fc1): Linear(in_features=448, out_features=1792, bias=True)
              (act): GELU(approximate=none)
              (fc2): Linear(in_features=1792, out_features=448, bias=True)
              (drop): Dropout(p=0.0, inplace=False)
            )
          )
          (14): InternImageLayer(
            (norm1): Sequential(
              (0): LayerNorm((448,), eps=1e-06, elementwise_affine=True)
            )
            (dcn): DCNv3(
              (dw_conv): Sequential(
                (0): Conv2d(448, 448, kernel_size=(3, 3), stride=(1, 1), padding=(1, 1), groups=448)
                (1): Sequential(
                  (0): to_channels_last()
                  (1): LayerNorm((448,), eps=1e-06, elementwise_affine=True)
                )
                (2): GELU(approximate=none)
              )
              (offset): Linear(in_features=448, out_features=504, bias=True)
              (mask): Linear(in_features=448, out_features=252, bias=True)
              (input_proj): Linear(in_features=448, out_features=448, bias=True)
              (output_proj): Linear(in_features=448, out_features=448, bias=True)
            )
            (drop_path): DropPath(drop_prob=0.275)
            (norm2): Sequential(
              (0): LayerNorm((448,), eps=1e-06, elementwise_affine=True)
            )
            (mlp): MLPLayer(
              (fc1): Linear(in_features=448, out_features=1792, bias=True)
              (act): GELU(approximate=none)
              (fc2): Linear(in_features=1792, out_features=448, bias=True)
              (drop): Dropout(p=0.0, inplace=False)
            )
          )
          (15): InternImageLayer(
            (norm1): Sequential(
              (0): LayerNorm((448,), eps=1e-06, elementwise_affine=True)
            )
            (dcn): DCNv3(
              (dw_conv): Sequential(
                (0): Conv2d(448, 448, kernel_size=(3, 3), stride=(1, 1), padding=(1, 1), groups=448)
                (1): Sequential(
                  (0): to_channels_last()
                  (1): LayerNorm((448,), eps=1e-06, elementwise_affine=True)
                )
                (2): GELU(approximate=none)
              )
              (offset): Linear(in_features=448, out_features=504, bias=True)
              (mask): Linear(in_features=448, out_features=252, bias=True)
              (input_proj): Linear(in_features=448, out_features=448, bias=True)
              (output_proj): Linear(in_features=448, out_features=448, bias=True)
            )
            (drop_path): DropPath(drop_prob=0.287)
            (norm2): Sequential(
              (0): LayerNorm((448,), eps=1e-06, elementwise_affine=True)
            )
            (mlp): MLPLayer(
              (fc1): Linear(in_features=448, out_features=1792, bias=True)
              (act): GELU(approximate=none)
              (fc2): Linear(in_features=1792, out_features=448, bias=True)
              (drop): Dropout(p=0.0, inplace=False)
            )
          )
          (16): InternImageLayer(
            (norm1): Sequential(
              (0): LayerNorm((448,), eps=1e-06, elementwise_affine=True)
            )
            (dcn): DCNv3(
              (dw_conv): Sequential(
                (0): Conv2d(448, 448, kernel_size=(3, 3), stride=(1, 1), padding=(1, 1), groups=448)
                (1): Sequential(
                  (0): to_channels_last()
                  (1): LayerNorm((448,), eps=1e-06, elementwise_affine=True)
                )
                (2): GELU(approximate=none)
              )
              (offset): Linear(in_features=448, out_features=504, bias=True)
              (mask): Linear(in_features=448, out_features=252, bias=True)
              (input_proj): Linear(in_features=448, out_features=448, bias=True)
              (output_proj): Linear(in_features=448, out_features=448, bias=True)
            )
            (drop_path): DropPath(drop_prob=0.300)
            (norm2): Sequential(
              (0): LayerNorm((448,), eps=1e-06, elementwise_affine=True)
            )
            (mlp): MLPLayer(
              (fc1): Linear(in_features=448, out_features=1792, bias=True)
              (act): GELU(approximate=none)
              (fc2): Linear(in_features=1792, out_features=448, bias=True)
              (drop): Dropout(p=0.0, inplace=False)
            )
          )
          (17): InternImageLayer(
            (norm1): Sequential(
              (0): LayerNorm((448,), eps=1e-06, elementwise_affine=True)
            )
            (dcn): DCNv3(
              (dw_conv): Sequential(
                (0): Conv2d(448, 448, kernel_size=(3, 3), stride=(1, 1), padding=(1, 1), groups=448)
                (1): Sequential(
                  (0): to_channels_last()
                  (1): LayerNorm((448,), eps=1e-06, elementwise_affine=True)
                )
                (2): GELU(approximate=none)
              )
              (offset): Linear(in_features=448, out_features=504, bias=True)
              (mask): Linear(in_features=448, out_features=252, bias=True)
              (input_proj): Linear(in_features=448, out_features=448, bias=True)
              (output_proj): Linear(in_features=448, out_features=448, bias=True)
            )
            (drop_path): DropPath(drop_prob=0.312)
            (norm2): Sequential(
              (0): LayerNorm((448,), eps=1e-06, elementwise_affine=True)
            )
            (mlp): MLPLayer(
              (fc1): Linear(in_features=448, out_features=1792, bias=True)
              (act): GELU(approximate=none)
              (fc2): Linear(in_features=1792, out_features=448, bias=True)
              (drop): Dropout(p=0.0, inplace=False)
            )
          )
          (18): InternImageLayer(
            (norm1): Sequential(
              (0): LayerNorm((448,), eps=1e-06, elementwise_affine=True)
            )
            (dcn): DCNv3(
              (dw_conv): Sequential(
                (0): Conv2d(448, 448, kernel_size=(3, 3), stride=(1, 1), padding=(1, 1), groups=448)
                (1): Sequential(
                  (0): to_channels_last()
                  (1): LayerNorm((448,), eps=1e-06, elementwise_affine=True)
                )
                (2): GELU(approximate=none)
              )
              (offset): Linear(in_features=448, out_features=504, bias=True)
              (mask): Linear(in_features=448, out_features=252, bias=True)
              (input_proj): Linear(in_features=448, out_features=448, bias=True)
              (output_proj): Linear(in_features=448, out_features=448, bias=True)
            )
            (drop_path): DropPath(drop_prob=0.325)
            (norm2): Sequential(
              (0): LayerNorm((448,), eps=1e-06, elementwise_affine=True)
            )
            (mlp): MLPLayer(
              (fc1): Linear(in_features=448, out_features=1792, bias=True)
              (act): GELU(approximate=none)
              (fc2): Linear(in_features=1792, out_features=448, bias=True)
              (drop): Dropout(p=0.0, inplace=False)
            )
          )
          (19): InternImageLayer(
            (norm1): Sequential(
              (0): LayerNorm((448,), eps=1e-06, elementwise_affine=True)
            )
            (dcn): DCNv3(
              (dw_conv): Sequential(
                (0): Conv2d(448, 448, kernel_size=(3, 3), stride=(1, 1), padding=(1, 1), groups=448)
                (1): Sequential(
                  (0): to_channels_last()
                  (1): LayerNorm((448,), eps=1e-06, elementwise_affine=True)
                )
                (2): GELU(approximate=none)
              )
              (offset): Linear(in_features=448, out_features=504, bias=True)
              (mask): Linear(in_features=448, out_features=252, bias=True)
              (input_proj): Linear(in_features=448, out_features=448, bias=True)
              (output_proj): Linear(in_features=448, out_features=448, bias=True)
            )
            (drop_path): DropPath(drop_prob=0.338)
            (norm2): Sequential(
              (0): LayerNorm((448,), eps=1e-06, elementwise_affine=True)
            )
            (mlp): MLPLayer(
              (fc1): Linear(in_features=448, out_features=1792, bias=True)
              (act): GELU(approximate=none)
              (fc2): Linear(in_features=1792, out_features=448, bias=True)
              (drop): Dropout(p=0.0, inplace=False)
            )
          )
          (20): InternImageLayer(
            (norm1): Sequential(
              (0): LayerNorm((448,), eps=1e-06, elementwise_affine=True)
            )
            (dcn): DCNv3(
              (dw_conv): Sequential(
                (0): Conv2d(448, 448, kernel_size=(3, 3), stride=(1, 1), padding=(1, 1), groups=448)
                (1): Sequential(
                  (0): to_channels_last()
                  (1): LayerNorm((448,), eps=1e-06, elementwise_affine=True)
                )
                (2): GELU(approximate=none)
              )
              (offset): Linear(in_features=448, out_features=504, bias=True)
              (mask): Linear(in_features=448, out_features=252, bias=True)
              (input_proj): Linear(in_features=448, out_features=448, bias=True)
              (output_proj): Linear(in_features=448, out_features=448, bias=True)
            )
            (drop_path): DropPath(drop_prob=0.350)
            (norm2): Sequential(
              (0): LayerNorm((448,), eps=1e-06, elementwise_affine=True)
            )
            (mlp): MLPLayer(
              (fc1): Linear(in_features=448, out_features=1792, bias=True)
              (act): GELU(approximate=none)
              (fc2): Linear(in_features=1792, out_features=448, bias=True)
              (drop): Dropout(p=0.0, inplace=False)
            )
          )
        )
        (downsample): DownsampleLayer(
          (conv): Conv2d(448, 896, kernel_size=(3, 3), stride=(2, 2), padding=(1, 1), bias=False)
          (norm): Sequential(
            (0): to_channels_last()
            (1): LayerNorm((896,), eps=1e-06, elementwise_affine=True)
          )
        )
      )
      (3): InternImageBlock(
        (blocks): ModuleList(
          (0): InternImageLayer(
            (norm1): Sequential(
              (0): LayerNorm((896,), eps=1e-06, elementwise_affine=True)
            )
            (dcn): DCNv3(
              (dw_conv): Sequential(
                (0): Conv2d(896, 896, kernel_size=(3, 3), stride=(1, 1), padding=(1, 1), groups=896)
                (1): Sequential(
                  (0): to_channels_last()
                  (1): LayerNorm((896,), eps=1e-06, elementwise_affine=True)
                )
                (2): GELU(approximate=none)
              )
              (offset): Linear(in_features=896, out_features=1008, bias=True)
              (mask): Linear(in_features=896, out_features=504, bias=True)
              (input_proj): Linear(in_features=896, out_features=896, bias=True)
              (output_proj): Linear(in_features=896, out_features=896, bias=True)
            )
            (drop_path): DropPath(drop_prob=0.363)
            (norm2): Sequential(
              (0): LayerNorm((896,), eps=1e-06, elementwise_affine=True)
            )
            (mlp): MLPLayer(
              (fc1): Linear(in_features=896, out_features=3584, bias=True)
              (act): GELU(approximate=none)
              (fc2): Linear(in_features=3584, out_features=896, bias=True)
              (drop): Dropout(p=0.0, inplace=False)
            )
          )
          (1): InternImageLayer(
            (norm1): Sequential(
              (0): LayerNorm((896,), eps=1e-06, elementwise_affine=True)
            )
            (dcn): DCNv3(
              (dw_conv): Sequential(
                (0): Conv2d(896, 896, kernel_size=(3, 3), stride=(1, 1), padding=(1, 1), groups=896)
                (1): Sequential(
                  (0): to_channels_last()
                  (1): LayerNorm((896,), eps=1e-06, elementwise_affine=True)
                )
                (2): GELU(approximate=none)
              )
              (offset): Linear(in_features=896, out_features=1008, bias=True)
              (mask): Linear(in_features=896, out_features=504, bias=True)
              (input_proj): Linear(in_features=896, out_features=896, bias=True)
              (output_proj): Linear(in_features=896, out_features=896, bias=True)
            )
            (drop_path): DropPath(drop_prob=0.375)
            (norm2): Sequential(
              (0): LayerNorm((896,), eps=1e-06, elementwise_affine=True)
            )
            (mlp): MLPLayer(
              (fc1): Linear(in_features=896, out_features=3584, bias=True)
              (act): GELU(approximate=none)
              (fc2): Linear(in_features=3584, out_features=896, bias=True)
              (drop): Dropout(p=0.0, inplace=False)
            )
          )
          (2): InternImageLayer(
            (norm1): Sequential(
              (0): LayerNorm((896,), eps=1e-06, elementwise_affine=True)
            )
            (dcn): DCNv3(
              (dw_conv): Sequential(
                (0): Conv2d(896, 896, kernel_size=(3, 3), stride=(1, 1), padding=(1, 1), groups=896)
                (1): Sequential(
                  (0): to_channels_last()
                  (1): LayerNorm((896,), eps=1e-06, elementwise_affine=True)
                )
                (2): GELU(approximate=none)
              )
              (offset): Linear(in_features=896, out_features=1008, bias=True)
              (mask): Linear(in_features=896, out_features=504, bias=True)
              (input_proj): Linear(in_features=896, out_features=896, bias=True)
              (output_proj): Linear(in_features=896, out_features=896, bias=True)
            )
            (drop_path): DropPath(drop_prob=0.388)
            (norm2): Sequential(
              (0): LayerNorm((896,), eps=1e-06, elementwise_affine=True)
            )
            (mlp): MLPLayer(
              (fc1): Linear(in_features=896, out_features=3584, bias=True)
              (act): GELU(approximate=none)
              (fc2): Linear(in_features=3584, out_features=896, bias=True)
              (drop): Dropout(p=0.0, inplace=False)
            )
          )
          (3): InternImageLayer(
            (norm1): Sequential(
              (0): LayerNorm((896,), eps=1e-06, elementwise_affine=True)
            )
            (dcn): DCNv3(
              (dw_conv): Sequential(
                (0): Conv2d(896, 896, kernel_size=(3, 3), stride=(1, 1), padding=(1, 1), groups=896)
                (1): Sequential(
                  (0): to_channels_last()
                  (1): LayerNorm((896,), eps=1e-06, elementwise_affine=True)
                )
                (2): GELU(approximate=none)
              )
              (offset): Linear(in_features=896, out_features=1008, bias=True)
              (mask): Linear(in_features=896, out_features=504, bias=True)
              (input_proj): Linear(in_features=896, out_features=896, bias=True)
              (output_proj): Linear(in_features=896, out_features=896, bias=True)
            )
            (drop_path): DropPath(drop_prob=0.400)
            (norm2): Sequential(
              (0): LayerNorm((896,), eps=1e-06, elementwise_affine=True)
            )
            (mlp): MLPLayer(
              (fc1): Linear(in_features=896, out_features=3584, bias=True)
              (act): GELU(approximate=none)
              (fc2): Linear(in_features=3584, out_features=896, bias=True)
              (drop): Dropout(p=0.0, inplace=False)
            )
          )
        )
      )
    )
  )
  (decode_head): UPerHead(
    input_transform=multiple_select, ignore_index=255, align_corners=False
    (loss_decode): CrossEntropyLoss(avg_non_ignore=False)
    (conv_seg): Conv2d(512, 150, kernel_size=(1, 1), stride=(1, 1))
    (dropout): Dropout2d(p=0.1, inplace=False)
    (psp_modules): PPM(
      (0): Sequential(
        (0): AdaptiveAvgPool2d(output_size=1)
        (1): ConvModule(
          (conv): Conv2d(896, 512, kernel_size=(1, 1), stride=(1, 1), bias=False)
          (bn): SyncBatchNorm(512, eps=1e-05, momentum=0.1, affine=True, track_running_stats=True)
          (activate): ReLU(inplace=True)
        )
      )
      (1): Sequential(
        (0): AdaptiveAvgPool2d(output_size=2)
        (1): ConvModule(
          (conv): Conv2d(896, 512, kernel_size=(1, 1), stride=(1, 1), bias=False)
          (bn): SyncBatchNorm(512, eps=1e-05, momentum=0.1, affine=True, track_running_stats=True)
          (activate): ReLU(inplace=True)
        )
      )
      (2): Sequential(
        (0): AdaptiveAvgPool2d(output_size=3)
        (1): ConvModule(
          (conv): Conv2d(896, 512, kernel_size=(1, 1), stride=(1, 1), bias=False)
          (bn): SyncBatchNorm(512, eps=1e-05, momentum=0.1, affine=True, track_running_stats=True)
          (activate): ReLU(inplace=True)
        )
      )
      (3): Sequential(
        (0): AdaptiveAvgPool2d(output_size=6)
        (1): ConvModule(
          (conv): Conv2d(896, 512, kernel_size=(1, 1), stride=(1, 1), bias=False)
          (bn): SyncBatchNorm(512, eps=1e-05, momentum=0.1, affine=True, track_running_stats=True)
          (activate): ReLU(inplace=True)
        )
      )
    )
    (bottleneck): ConvModule(
      (conv): Conv2d(2944, 512, kernel_size=(3, 3), stride=(1, 1), padding=(1, 1), bias=False)
      (bn): SyncBatchNorm(512, eps=1e-05, momentum=0.1, affine=True, track_running_stats=True)
      (activate): ReLU(inplace=True)
    )
    (lateral_convs): ModuleList(
      (0): ConvModule(
        (conv): Conv2d(112, 512, kernel_size=(1, 1), stride=(1, 1), bias=False)
        (bn): SyncBatchNorm(512, eps=1e-05, momentum=0.1, affine=True, track_running_stats=True)
        (activate): ReLU()
      )
      (1): ConvModule(
        (conv): Conv2d(224, 512, kernel_size=(1, 1), stride=(1, 1), bias=False)
        (bn): SyncBatchNorm(512, eps=1e-05, momentum=0.1, affine=True, track_running_stats=True)
        (activate): ReLU()
      )
      (2): ConvModule(
        (conv): Conv2d(448, 512, kernel_size=(1, 1), stride=(1, 1), bias=False)
        (bn): SyncBatchNorm(512, eps=1e-05, momentum=0.1, affine=True, track_running_stats=True)
        (activate): ReLU()
      )
    )
    (fpn_convs): ModuleList(
      (0): ConvModule(
        (conv): Conv2d(512, 512, kernel_size=(3, 3), stride=(1, 1), padding=(1, 1), bias=False)
        (bn): SyncBatchNorm(512, eps=1e-05, momentum=0.1, affine=True, track_running_stats=True)
        (activate): ReLU()
      )
      (1): ConvModule(
        (conv): Conv2d(512, 512, kernel_size=(3, 3), stride=(1, 1), padding=(1, 1), bias=False)
        (bn): SyncBatchNorm(512, eps=1e-05, momentum=0.1, affine=True, track_running_stats=True)
        (activate): ReLU()
      )
      (2): ConvModule(
        (conv): Conv2d(512, 512, kernel_size=(3, 3), stride=(1, 1), padding=(1, 1), bias=False)
        (bn): SyncBatchNorm(512, eps=1e-05, momentum=0.1, affine=True, track_running_stats=True)
        (activate): ReLU()
      )
    )
    (fpn_bottleneck): ConvModule(
      (conv): Conv2d(2048, 512, kernel_size=(3, 3), stride=(1, 1), padding=(1, 1), bias=False)
      (bn): SyncBatchNorm(512, eps=1e-05, momentum=0.1, affine=True, track_running_stats=True)
      (activate): ReLU(inplace=True)
    )
  )
  init_cfg={'type': 'Normal', 'std': 0.01, 'override': {'name': 'conv_seg'}}
  (auxiliary_head): FCNHead(
    input_transform=None, ignore_index=255, align_corners=False
    (loss_decode): CrossEntropyLoss(avg_non_ignore=False)
    (conv_seg): Conv2d(256, 150, kernel_size=(1, 1), stride=(1, 1))
    (dropout): Dropout2d(p=0.1, inplace=False)
    (convs): Sequential(
      (0): ConvModule(
        (conv): Conv2d(448, 256, kernel_size=(3, 3), stride=(1, 1), padding=(1, 1), bias=False)
        (bn): SyncBatchNorm(256, eps=1e-05, momentum=0.1, affine=True, track_running_stats=True)
        (activate): ReLU(inplace=True)
      )
    )
  )
  init_cfg={'type': 'Normal', 'std': 0.01, 'override': {'name': 'conv_seg'}}
)
